…
s.Conv2D(32, [3, 3], 1, &#39;same&#39;, activation=&#39;relu&#39;)) model.add(keras.layers.MaxPool2D([2, 2], 2, &#39;same&#39;)) . model.add(keras.layers.Flatten()) . model.add(keras.layers.Dense(128, activation=&#39;relu&#39;)) model.add(keras.layers.Dropout(0.5)) model.add(keras.layers.Dense(10, activation=&#39;softmax&#39;)) #sparse =&gt; softmax를 보기 쉽게 만든 버전. . model.summary() . Model: &#34;sequential_1&#34; _________________________________________________________________ Layer (type) Output Shape Param # ================================================================= conv2d_4 (Conv2D) (None, 28, 28, 6) 60 max_pooling2d_3 (MaxPooling (None, 14, 14, 6) 0 2D) conv2d_5 (Conv2D) (None, 14, 14, 16) 880 max_pooling2d_4 (MaxPooling (None, 7, 7, 16) 0 2D) conv2d_6 (Conv2D) (None, 7, 7, 32) 4640 max_pooling2d_5 (MaxPooling (None, 4, 4, 32) 0 2D) conv2d_7 (Conv2D) (None, 4, 4, 32) 9248 max_pooling2d_6 (MaxPooling (None, 2, 2, 32) 0 2D) conv2d_8 (Conv2D) (None, 2, 2, 6) 1734 max_pooling2d_7 (MaxPooling (None, 1, 1, 6) 0 2D) conv2d_9 (Conv2D) (None, 1, 1, 16) 880 max_pooling2d_8 (MaxPooling (None, 1, 1, 16) 0 2D) conv2d_10 (Conv2D) (None, 1, 1, 32) 4640 max_pooling2d_9 (MaxPooling (None, 1, 1, 32) 0 2D) flatten_1 (Flatten) (None, 32) 0 dense_4 (Dense) (None, 128) 4224 dropout_1 (Dropout) (None, 128) 0 dense_5 (Dense) (None, 10) 1290 ================================================================= Total params: 27,596 Trainable params: 27,596 Non-trainable params: 0 _________________________________________________________________ . model.compile(optimizer=keras.optimizers.Adam(0.001), loss=keras.losses.sparse_categorical_crossentropy, metrics=[&#39;acc&#39;]) . model.fit(x_train, y_train, epochs = 10, batch_size=100, verbos
…
